…
----------------  Data Loading ----------------
-----------------------------------------------

2025-07-04 06:09:26  [INFO]:  Batch  size:1
Worker num:8
Train  num:998
Valid  num:2
Drop last :False
Shuffle: True

2025-07-04 06:09:26  [INFO]:  
-----------------------------------------------
----------------  Model Loading ---------------
-----------------------------------------------

2025-07-04 06:09:26  [INFO]:  
Module: Unet3D loaded ! Init Method:kaiming
2025-07-04 06:09:27  [INFO]:  
Module: GraphSeg loaded ! Init Method:kaiming
2025-07-04 06:09:27  [INFO]:  Model Structure:
[Unet3D(
  (incoder): Sequential(
    (0): Conv3d(1, 8, kernel_size=(3, 3, 3), stride=(1, 1, 1), padding=(1, 1, 1))
    (1): LeakyReLU(negative_slope=0.01)
  )
  (encoders): ModuleList(
    (0): ConvEncoder3D(
      (encoder): Sequential(
        (0): ConvBlock3D(
          (conv): Sequential(
            (0): Conv3d(8, 16, kernel_size=(3, 3, 3), stride=(1, 1, 1), padding=(1, 1, 1))
            (1): BatchNorm3d(16, eps=1e-05, momentum=0.1, affine=True, track_running_stats=True)
            (2): LeakyReLU(negative_slope=0.01)
            (3): Conv3d(16, 16, kernel_size=(3, 3, 3), stride=(1, 1, 1), padding=(1, 1, 1))
            (4): BatchNorm3d(16, eps=1e-05, momentum=0.1, affine=True, track_running_stats=True)
            (5): LeakyReLU(negative_slope=0.01)
          )
        )
        (1): MaxPool3d(kernel_size=(2, 2, 2), stride=(2, 2, 2), padding=0, dilation=1, ceil_mode=False)
      )
    )
    (1): ConvEncoder3D(
      (encoder): Sequential(
        (0): ConvBlock3D(
          (conv): Sequential(
            (0): Conv3d(16, 32, kernel_size=(3, 3, 3), stride=(1, 1, 1), padding=(1, 1, 1))
            (1): BatchNorm3d(32, eps=1e-05, momentum=0.1, affine=True, track_running_stats=True)
            (2): LeakyReLU(negative_slope=0.01)
            (3): Conv3d(32, 32, kernel_size=(3, 3, 3), stride=(1, 1, 1), padding=(1, 1, 1))
            (4): BatchNorm3d(32, eps=1e-05, momentum=0.1, affine=True, track_running_stats=True)
            (5): LeakyReLU(negative_slope=0.01)
          )
        )
        (1): MaxPool3d(kernel_size=(2, 2, 2), stride=(2, 2, 2), padding=0, dilation=1, ceil_mode=False)
      )
    )
    (2): ConvEncoder3D(
      (encoder): Sequential(
        (0): ConvBlock3D(
          (conv): Sequential(
            (0): Conv3d(32, 64, kernel_size=(3, 3, 3), stride=(1, 1, 1), padding=(1, 1, 1))
            (1): BatchNorm3d(64, eps=1e-05, momentum=0.1, affine=True, track_running_stats=True)
            (2): LeakyReLU(negative_slope=0.01)
            (3): Conv3d(64, 64, kernel_size=(3, 3, 3), stride=(1, 1, 1), padding=(1, 1, 1))
            (4): BatchNorm3d(64, eps=1e-05, momentum=0.1, affine=True, track_running_stats=True)
            (5): LeakyReLU(negative_slope=0.01)
          )
        )
        (1): MaxPool3d(kernel_size=(2, 2, 2), stride=(2, 2, 2), padding=0, dilation=1, ceil_mode=False)
      )
    )
  )
  (decoders): ModuleList(
    (0): ConvDecoder3D(
      (up): ConvTranspose3d(64, 32, kernel_size=(2, 2, 2), stride=(2, 2, 2))
      (conv): ConvBlock3D(
        (conv): Sequential(
          (0): Conv3d(64, 32, kernel_size=(3, 3, 3), stride=(1, 1, 1), padding=(1, 1, 1))
          (1): BatchNorm3d(32, eps=1e-05, momentum=0.1, affine=True, track_running_stats=True)
          (2): LeakyReLU(negative_slope=0.01)
          (3): Conv3d(32, 32, kernel_size=(3, 3, 3), stride=(1, 1, 1), padding=(1, 1, 1))
          (4): BatchNorm3d(32, eps=1e-05, momentum=0.1, affine=True, track_running_stats=True)
          (5): LeakyReLU(negative_slope=0.01)
        )
      )
    )
    (1): ConvDecoder3D(
      (up): ConvTranspose3d(32, 16, kernel_size=(2, 2, 2), stride=(2, 2, 2))
      (conv): ConvBlock3D(
        (conv): Sequential(
          (0): Conv3d(32, 16, kernel_size=(3, 3, 3), stride=(1, 1, 1), padding=(1, 1, 1))
          (1): BatchNorm3d(16, eps=1e-05, momentum=0.1, affine=True, track_running_stats=True)
          (2): LeakyReLU(negative_slope=0.01)
          (3): Conv3d(16, 16, kernel_size=(3, 3, 3), stride=(1, 1, 1), padding=(1, 1, 1))
          (4): BatchNorm3d(16, eps=1e-05, momentum=0.1, affine=True, track_running_stats=True)
          (5): LeakyReLU(negative_slope=0.01)
        )
      )
    )
    (2): ConvDecoder3D(
      (up): ConvTranspose3d(16, 8, kernel_size=(2, 2, 2), stride=(2, 2, 2))
      (conv): ConvBlock3D(
        (conv): Sequential(
          (0): Conv3d(16, 8, kernel_size=(3, 3, 3), stride=(1, 1, 1), padding=(1, 1, 1))
          (1): BatchNorm3d(8, eps=1e-05, momentum=0.1, affine=True, track_running_stats=True)
          (2): LeakyReLU(negative_slope=0.01)
          (3): Conv3d(8, 8, kernel_size=(3, 3, 3), stride=(1, 1, 1), padding=(1, 1, 1))
          (4): BatchNorm3d(8, eps=1e-05, momentum=0.1, affine=True, track_running_stats=True)
          (5): LeakyReLU(negative_slope=0.01)
        )
      )
    )
  )
  (outcoder): Conv3d(8, 1, kernel_size=(1, 1, 1), stride=(1, 1, 1))
), GraphSeg(
  (gcn_projn): ModuleList(
    (0): GProjection3D(
      (sum_neighbourhood): Conv2d(32, 32, kernel_size=(1, 27), stride=(1, 1))
      (shift_delta): Conv1d(32, 81, kernel_size=(1,), stride=(1,))
      (feature_diff_1): Linear(in_features=35, out_features=32, bias=True)
      (feature_diff_2): Linear(in_features=32, out_features=32, bias=True)
      (feature_center_1): Linear(in_features=35, out_features=32, bias=True)
      (feature_center_2): Linear(in_features=32, out_features=32, bias=True)
    )
    (1): GProjection3D(
      (sum_neighbourhood): Conv2d(16, 16, kernel_size=(1, 27), stride=(1, 1))
      (shift_delta): Conv1d(16, 81, kernel_size=(1,), stride=(1,))
      (feature_diff_1): Linear(in_features=19, out_features=16, bias=True)
      (feature_diff_2): Linear(in_features=16, out_features=16, bias=True)
      (feature_center_1): Linear(in_features=19, out_features=16, bias=True)
      (feature_center_2): Linear(in_features=16, out_features=16, bias=True)
    )
    (2): GProjection3D(
      (sum_neighbourhood): Conv2d(8, 8, kernel_size=(1, 27), stride=(1, 1))
      (shift_delta): Conv1d(8, 81, kernel_size=(1,), stride=(1,))
      (feature_diff_1): Linear(in_features=11, out_features=8, bias=True)
      (feature_diff_2): Linear(in_features=8, out_features=8, bias=True)
      (feature_center_1): Linear(in_features=11, out_features=8, bias=True)
      (feature_center_2): Linear(in_features=8, out_features=8, bias=True)
    )
  )
  (gcn_model): ModuleList(
    (0): GBottleNeck(
      (model): Sequential(
        (0) - GCNConv(59, 192): x, edge_index -> x
        (1) - ReLU(): x -> x
        (2) - GResBlock(
        (model): Sequential(
          (0) - GCNConv(192, 192): x, edge_index -> x
          (1) - ReLU(): x -> x
          (2) - GCNConv(192, 192): x, edge_index -> x
…
